…
ld like to output accuracy as an additional metric. model = Model(inputs=input_img, outputs=predictions) sgd_opt = SGD(lr=0.01, momentum=0.9, decay=0.0, nesterov=True) model.compile(optimizer=sgd_opt, loss='categorical_crossentropy', metrics=['accuracy']) model.summary()   Model: \u0026quot;model\u0026quot; _________________________________________________________________ Layer (type) Output Shape Param # ================================================================= input_1 (InputLayer) [(None, 96, 96, 3)] 0 _________________________________________________________________ conv2d (Conv2D) (None, 94, 94, 16) 448 _________________________________________________________________ conv2d_1 (Conv2D) (None, 92, 92, 16) 2320 _________________________________________________________________ max_pooling2d (MaxPooling2D) (None, 46, 46, 16) 0 _________________________________________________________________ conv2d_2 (Conv2D) (None, 44, 44, 32) 4640 _________________________________________________________________ conv2d_3 (Conv2D) (None, 42, 42, 32) 9248 _________________________________________________________________ max_pooling2d_1 (MaxPooling2 (None, 21, 21, 32) 0 _________________________________________________________________ conv2d_4 (Conv2D) (None, 19, 19, 64) 18496 _________________________________________________________________ conv2d_5 (Conv2D) (None, 17, 17, 64) 36928 _________________________________________________________________ max_pooling2d_2 (MaxPooling2 (None, 8, 8, 64) 0 _________________________________________________________________ flatten (Flatten) (None, 4096) 0 _________________________________________________________________ dense (Dense) (None, 256) 1048832 _________________________________________________________________ dropout (Dropout) (None, 256) 0 _________________________________________________________________ dense_1 (Dense) (None, 128) 32896 _________________________________________________________________ dropout_1 (Dropout) (None, 128) 0 _________________________________________________________________ dense_2 (Dense) (None, 2) 258 ================================================================= Total params: 1,154,066 Trainable params: 1,154,066 Non-trainable params: 0 _________________________________________________________________   To keep the dataset size small PatchCAMELYON is stored as int8 patches. For network training we need float32 and we want to normalize between 0 and 1. The function below performs this task.
…
