…
              loss=&#39;categorical_crossentropy&#39;,
              metrics=[&#39;accuracy&#39;])
model.summary()
&lt;/code&gt;&lt;/pre&gt;
&lt;blockquote&gt;
&lt;pre&gt;&lt;code class=&#34;language-text&#34;&gt;&lt;/code&gt;&lt;/pre&gt;
&lt;/blockquote&gt;
&lt;p&gt;Model: &amp;ldquo;model&amp;rdquo;&lt;/p&gt;
&lt;hr&gt;
&lt;h1 id=&#34;layer-type-----------------output-shape--------------param-&#34;&gt;Layer (type)                 Output Shape              Param #&lt;/h1&gt;
&lt;p&gt;input_1 (InputLayer)         [(None, 96, 96, 3)]       0&lt;/p&gt;
&lt;hr&gt;
&lt;p&gt;conv2d (Conv2D)              (None, 94, 94, 16)        448&lt;/p&gt;
&lt;hr&gt;
&lt;p&gt;conv2d_1 (Conv2D)            (None, 92, 92, 16)        2320&lt;/p&gt;
&lt;hr&gt;
&lt;p&gt;max_pooling2d (MaxPooling2D) (None, 46, 46, 16)        0&lt;/p&gt;
&lt;hr&gt;
&lt;p&gt;conv2d_2 (Conv2D)            (None, 44, 44, 32)        4640&lt;/p&gt;
&lt;hr&gt;
&lt;p&gt;conv2d_3 (Conv2D)            (None, 42, 42, 32)        9248&lt;/p&gt;
&lt;hr&gt;
&lt;p&gt;max_pooling2d_1 (MaxPooling2 (None, 21, 21, 32)        0&lt;/p&gt;
&lt;hr&gt;
&lt;p&gt;conv2d_4 (Conv2D)            (None, 19, 19, 64)        18496&lt;/p&gt;
&lt;hr&gt;
&lt;p&gt;conv2d_5 (Conv2D)            (None, 17, 17, 64)        36928&lt;/p&gt;
&lt;hr&gt;
&lt;p&gt;max_pooling2d_2 (MaxPooling2 (None, 8, 8, 64)          0&lt;/p&gt;
&lt;hr&gt;
&lt;p&gt;flatten (Flatten)            (None, 4096)              0&lt;/p&gt;
&lt;hr&gt;
&lt;p&gt;dense (Dense)                (None, 256)               1048832&lt;/p&gt;
&lt;hr&gt;
&lt;p&gt;dropout (Dropout)            (None, 256)               0&lt;/p&gt;
&lt;hr&gt;
&lt;p&gt;dense_1 (Dense)              (None, 128)               32896&lt;/p&gt;
&lt;hr&gt;
&lt;p&gt;dropout_1 (Dropout)          (None, 128)               0&lt;/p&gt;
&lt;hr&gt;
&lt;h1 id=&#34;dense_2-dense--------------none-2-----------------258&#34;&gt;dense_2 (Dense)              (None, 2)                 258&lt;/h1&gt;
&lt;p&gt;Total params: 1,154,066
Trainable params: 1,154,066
Non-trainable params: 0&lt;/p&gt;
&lt;hr&gt;
&lt;pre&gt;&lt;code&gt;
To keep the dataset size small PatchCAMELYON is stored as int8 patches. For network training we need float32 and we want to normalize between 0 and 1. The function below performs this task.


```python
def convert_sample(sample):
    image, label = sample[&#39;image&#39;], sample[&#39;label&#39;]  
…
