…
# descent with Nesterov momentum. The loss we use is cross-entropy and we would like to output accuracy as an additional metric.
model = Model(inputs=input_img, outputs=predictions)
sgd_opt = SGD(lr=0.01, momentum=0.9, decay=0.0, nesterov=True)
model.compile(optimizer=sgd_opt,
loss='categorical_crossentropy',
metrics=['accuracy'])
model.summary()
&lt;/code>&lt;/pre>
&lt;blockquote>
&lt;pre>&lt;code class="language-text">&lt;/code>&lt;/pre>
&lt;/blockquote>
&lt;p>Model: &amp;ldquo;model&amp;rdquo;&lt;/p>
&lt;hr>
&lt;h1 id="layer-type-----------------output-shape--------------param-">Layer (type) Output Shape Param #&lt;/h1>
&lt;p>input_1 (InputLayer) [(None, 96, 96, 3)] 0&lt;/p>
&lt;hr>
&lt;p>conv2d (Conv2D) (None, 94, 94, 16) 448&lt;/p>
&lt;hr>
&lt;p>conv2d_1 (Conv2D) (None, 92, 92, 16) 2320&lt;/p>
&lt;hr>
&lt;p>max_pooling2d (MaxPooling2D) (None, 46, 46, 16) 0&lt;/p>
&lt;hr>
&lt;p>conv2d_2 (Conv2D) (None, 44, 44, 32) 4640&lt;/p>
&lt;hr>
&lt;p>conv2d_3 (Conv2D) (None, 42, 42, 32) 9248&lt;/p>
&lt;hr>
&lt;p>max_pooling2d_1 (MaxPooling2 (None, 21, 21, 32) 0&lt;/p>
&lt;hr>
&lt;p>conv2d_4 (Conv2D) (None, 19, 19, 64) 18496&lt;/p>
&lt;hr>
&lt;p>conv2d_5 (Conv2D) (None, 17, 17, 64) 36928&lt;/p>
&lt;hr>
&lt;p>max_pooling2d_2 (MaxPooling2 (None, 8, 8, 64) 0&lt;/p>
&lt;hr>
&lt;p>flatten (Flatten) (None, 4096) 0&lt;/p>
&lt;hr>
&lt;p>dense (Dense) (None, 256) 1048832&lt;/p>
&lt;hr>
&lt;p>dropout (Dropout) (None, 256) 0&lt;/p>
&lt;hr>
&lt;p>dense_1 (Dense) (None, 128) 32896&lt;/p>
&lt;hr>
&lt;p>dropout_1 (Dropout) (None, 128) 0&lt;/p>
&lt;hr>
&lt;h1 id="dense_2-dense--------------none-2-----------------258">dense_2 (Dense) (None, 2) 258&lt;/h1>
&lt;p>Total params: 1,154,066
Trainable params: 1,154,066
Non-trainable params: 0&lt;/p>
&lt;hr>
&lt;pre>&lt;code>
To keep the dataset size small PatchCAMELYON is stored as int8 patches. For network training we need float32 and we want to normalize between 0 and 1. The function below performs this task.
```python
def convert_sample(sample):
image, label = sample['image'], sample['label']
image = tf.image.convert_image_dtype(image, tf.float32)
…
